…
        "peak_rmse": 14940.70466878989,
        "peak_mae": 9749.94140625,
        "peak_mape": 33.282657623291016,
        "low_rmse": 1245.7009572927204,
        "low_mae": 698.8776245117188
    },
    "training_history": {
        "train_losses": [
            … "val_losses": [
            … "training_time": "0:51:01.260091",
        "epochs_completed": 55,
        "best_epoch": 5
    },
    "model_info": {
        "total_parameters": 46503073,
        "trainable_parameters": 46503073,
        "model_architecture": "EnhancedLSTMTrafficPredictor(\n  (traffic_cnn): MultiScaleCNN(\n    (convs): ModuleList(\n      (0): Conv1d(30, 52, kernel_size=(3,), stride=(1,), padding=(1,))\n      (1): Conv1d(30, 51, kernel_size=(5,), stride=(1,), padding=(2,))\n      (2): Conv1d(30, 51, kernel_size=(7,), stride=(1,), padding=(3,))\n      (3): Conv1d(30, 51, kernel_size=(11,), stride=(1,), padding=(5,))\n      (4): Conv1d(30, 51, kernel_size=(15,), stride=(1,), padding=(7,))\n    )\n    (bn): BatchNorm1d(256, eps=1e-05, momentum=0.1, affine=True, track_running_stats=True)\n    (dropout): Dropout(p=0.1, inplace=False)\n  )\n  (traffic_lstm): LSTM(256, 512, num_layers=5, batch_first=True, dropout=0.15, bidirectional=True)\n  (temporal_encoder): Sequential(\n    (0): Linear(in_features=10, out_features=256, bias=True)\n    (1): ReLU()\n    (2): Dropout(p=0.15, inplace=False)\n    (3): Linear(in_features=256, out_features=256, bias=True)\n  )\n  (temporal_bn): BatchNorm1d(256, eps=1e-05, momentum=0.1, affine=True, track_running_stats=True)\n  (fusion_layer): Sequential(\n    (0): Linear(in_features=1280, out_features=1024, bias=True)\n    (1): ReLU()\n    (2): LayerNorm((1024,), eps=1e-05, elementwise_affine=True)\n    (3): Dropout(p=0.15, inplace=False)\n  )\n  (attention): MultiheadAttention(\n    (out_proj): NonDynamicallyQuantizableLinear(in_features=1024, out_features=1024, bias=True)\n  )\n  (pos_encoding): PositionalEncoding()\n  (prediction_heads): ModuleList(\n    (0-17): 18 x Sequential(\n      (0): Linear(in_features=1024, out_features=512, bias=True)\n      (1): ReLU()\n      (2): Dropout(p=0.15, inplace=False)\n      (3): Linear(in_features=512, out_features=256, bias=True)\n      (4): ReLU()\n      (5): Linear(in_features=256, out_features=30, bias=True)\n    )\n  )\n  (peak_detector): Sequential(\n    (0): Linear(in_features=1024, out_features=512, bias=True)\n    (1): ReLU()\n    (2): Linear(in_features=512, out_features=1, bias=True)\n  )\n  (peak_enhancer): Sequential(\n    (0): Linear(in_features=30, out_features=512, bias=True)\n    (1): ReLU()\n    (2): Linear(in_features=512, out_features=30, bias=True)\n    (3): Tanh()\n  )\n)",
        "config": {
            "BATCH_SIZE": 16,
            "CHECKPOINT_FREQUENCY": 20,
            "DATA_DIRECTORY": "C:\\Users\\Fan\\PycharmProjects\\dataset2\\dataverse_files",
            "DATA_PATH": "C:\\Users\\Fan\\PycharmProjects\\dataset2\\processed_data\\milan_traffic_data_processed_full_memory_efficient.pkl",
…
